…
tracker=botsort.yaml, translate=0.1, val=True, verbose=True, vid_stride=1, visualize=False, warmup_bias_lr=0.1, warmup_epochs=3.0, warmup_momentum=0.8, weight_decay=0.0005, workers=2, workspace=None\n",
      "\u001b[KDownloading https://ultralytics.com/assets/Arial.ttf to '/root/.config/Ultralytics/Arial.ttf': 100% ━━━━━━━━━━━━ 755.1KB 15.4MB/s 0.0s\n",
      "Overriding model.yaml nc=80 with nc=1\n",
      "\n",
      "                   from  n    params  module                                       arguments                     \n",
      "  0                  -1  1      1856  ultralytics.nn.modules.conv.Conv             [3, 64, 3, 2]                 \n",
      "  1                  -1  1     73984  ultralytics.nn.modules.conv.Conv             [64, 128, 3, 2]               \n",
      "  2                  -1  2    173824  ultralytics.nn.modules.block.C3k2            [128, 256, 2, True, 0.25]     \n",
      "  3                  -1  1    590336  ultralytics.nn.modules.conv.Conv             [256, 256, 3, 2]              \n",
      "  4                  -1  2    691712  ultralytics.nn.modules.block.C3k2            [256, 512, 2, True, 0.25]     \n",
      "  5                  -1  1   2360320  ultralytics.nn.modules.conv.Conv             [512, 512, 3, 2]              \n",
      "  6                  -1  2   2234368  ultralytics.nn.modules.block.C3k2            [512, 512, 2, True]           \n",
      "  7                  -1  1   2360320  ultralytics.nn.modules.conv.Conv             [512, 512, 3, 2]              \n",
      "  8                  -1  2   2234368  ultralytics.nn.modules.block.C3k2            [512, 512, 2, True]           \n",
      "  9                  -1  1    656896  ultralytics.nn.modules.block.SPPF            [512, 512, 5, 3, True]        \n",
      " 10                  -1  2   1455616  ultralytics.nn.modules.block.C2PSA           [512, 512, 2]                 \n",
      " 11                  -1  1         0  torch.nn.modules.upsampling.Upsample         [None, 2, 'nearest']          \n",
      " 12             [-1, 6]  1         0  ultralytics.nn.modules.conv.Concat           [1]                           \n",
      " 13                  -1  2   2496512  ultralytics.nn.modules.block.C3k2            [1024, 512, 2, True]          \n",
      " 14                  -1  1         0  torch.nn.modules.upsampling.Upsample         [None, 2, 'nearest']          \n",
      " 15             [-1, 4]  1         0  ultralytics.nn.modules.conv.Concat           [1]                           \n",
      " 16                  -1  2    756736  ultralytics.nn.modules.block.C3k2            [1024, 256, 2, True]          \n",
      " 17                  -1  1    590336  ultralytics.nn.modules.conv.Conv             [256, 256, 3, 2]              \n",
      " 18            [-1, 13]  1         0  ultralytics.nn.modules.conv.Concat           [1]                           \n",
      " 19                  -1  2   2365440  ultralytics.nn.modules.block.C3k2            [768, 512, 2, True]           \n",
      " 20                  -1  1   2360320  ultralytics.nn.modules.conv.Conv             [512, 512, 3, 2]              \n",
      " 21            [-1, 10]  1         0  ultralytics.nn.modules.conv.Concat           [1]                           \n",
      " 22                  -1  1   1974784  ultralytics.nn.modules.block.C3k2            [1024, 512, 1, True, 0.5, True]\n",
      " 23        [16, 19, 22]  1   2800158  ultralytics.nn.modules.head.Detect           [1, 1, True, [256, 512, 512]] \n",
      "YOLO26l summary: 392 layers, 26,177,886 parameters, 26,177,886 gradients, 93.1 GFLOPs\n",
      "\n",
      "Transferred 1080/1092 items from pretrained weights\n",
      "\u001b[34m\u001b[1mDDP:\u001b[0m debug command /usr/bin/python3 -m torch.distributed.run --nproc_per_node 2 --master_port 45267 /root/.config/Ultralytics/DDP/_temp_n695itnq135599565889392.py\n",
…
